…
          "base_uri": "https://localhost:8080/"
        },
        "id": "KZPfrOE_NauC",
        "outputId": "af56e03e-dc1b-490d-9158-64a6b6125447"
      },
      "execution_count": 11,
      "outputs": [
        {
          "output_type": "stream",
          "name": "stdout",
          "text": [
            "Model: \"sequential_1\"\n",
            "_________________________________________________________________\n",
            " Layer (type)                Output Shape              Param #   \n",
            "=================================================================\n",
            " conv1d_3 (Conv1D)           (None, 200, 62)           248       \n",
            "                                                                 \n",
            " max_pooling1d_3 (MaxPooling  (None, 67, 62)           0         \n",
            " 1D)                                                             \n",
            "                                                                 \n",
            " batch_normalization_5 (Batc  (None, 67, 62)           248       \n",
            " hNormalization)                                                 \n",
            "                                                                 \n",
            " dropout_5 (Dropout)         (None, 67, 62)            0         \n",
            "                                                                 \n",
            " conv1d_4 (Conv1D)           (None, 67, 52)            9724      \n",
            "                                                                 \n",
            " max_pooling1d_4 (MaxPooling  (None, 23, 52)           0         \n",
            " 1D)                                                             \n",
            "                                                                 \n",
            " batch_normalization_6 (Batc  (None, 23, 52)           208       \n",
            " hNormalization)                                                 \n",
            "                                                                 \n",
            " dropout_6 (Dropout)         (None, 23, 52)            0         \n",
            "                                                                 \n",
            " conv1d_5 (Conv1D)           (None, 23, 32)            5024      \n",
            "                                                                 \n",
            " max_pooling1d_5 (MaxPooling  (None, 8, 32)            0         \n",
            " 1D)                                                             \n",
            "                                                                 \n",
            " batch_normalization_7 (Batc  (None, 8, 32)            128       \n",
            " hNormalization)                                                 \n",
            "                                                                 \n",
            " dropout_7 (Dropout)         (None, 8, 32)             0         \n",
            "                                                                 \n",
            " flatten_1 (Flatten)         (None, 256)               0         \n",
            "                                                                 \n",
            " dense_3 (Dense)             (None, 512)               131584    \n",
            "                                                                 \n",
            " batch_normalization_8 (Batc  (None, 512)              2048      \n",
            " hNormalization)                                                 \n",
            "                                                                 \n",
            " dropout_8 (Dropout)         (None, 512)               0         \n",
            "                                                                 \n",
            " dense_4 (Dense)             (None, 256)               131328    \n",
            "                                                                 \n",
            " batch_normalization_9 (Batc  (None, 256)              1024      \n",
            " hNormalization)                                                 \n",
            "                                                                 \n",
            " dropout_9 (Dropout)         (None, 256)               0         \n",
            "                                                                 \n",
            " dense_5 (Dense)             (None, 1)                 257       \n",
            "                                                                 \n",
            "=================================================================\n",
            "Total params: 281,821\n",
            "Trainable params: 279,993\n",
            "Non-trainable params: 1,828\n",
            "_________________________________________________________________\n",
            "None\n"
…
          "base_uri": "https://localhost:8080/"
        },
        "id": "L7T-pfHtNawV",
        "outputId": "66206e9c-1876-46fc-a080-13f3abbbbb09"
      },
      "execution_count": 22,
      "outputs": [
        {
          "output_type": "stream",
          "name": "stdout",
          "text": [
            "Model: \"sequential_10\"\n",
            "_________________________________________________________________\n",
            " Layer (type)                Output Shape              Param #   \n",
            "=================================================================\n",
            " dense_14 (Dense)            (None, 50, 50)            100       \n",
            "                                                                 \n",
            " conv1d_23 (Conv1D)          (None, 50, 5)             755       \n",
            "                                                                 \n",
            " up_sampling1d_4 (UpSampling  (None, 200, 5)           0         \n",
            " 1D)                                                             \n",
            "                                                                 \n",
            " conv1d_24 (Conv1D)          (None, 200, 15)           240       \n",
            "                                                                 \n",
            " conv1d_25 (Conv1D)          (None, 200, 52)           2392      \n",
            "                                                                 \n",
            " conv1d_26 (Conv1D)          (None, 200, 1)            157       \n",
            "                                                                 \n",
            "=================================================================\n",
            "Total params: 3,644\n",
            "Trainable params: 3,644\n",
            "Non-trainable params: 0\n",
            "_________________________________________________________________\n",
            "None\n"
…
